deep_equation/src/deep_equation/best_models/ConvModel.pth (torch, 130503 bytes, 10 tensors)

conv1.weight f4 [10, 1, 5, 5]
000000 e6 63 2c 3e e7 2d 25 3e bf f4 4c 3e db 5e 2e 3e
       0.16834983 0.16130792 0.20015238 0.17028372
000010 a1 f7 68 3e 73 73 0e be 1d 77 10 3d c4 9c d2 bd
       0.22750713 -0.13911228 0.035269845 -0.10283807
000020 69 7f f4 bc a8 ff c1 bd b5 33 81 be 8b 2e bf 3d
       -0.02984591 -0.09472591 -0.25234762 0.09335049
000030 b6 d4 ad 3d 80 f4 f2 3d 83 61 a9 be 9b 73 75 be
       0.08487837 0.11863041 -0.33082208 -0.23969881
000040 8d 0c 4e 3e 27 b9 4b be 90 67 9f be 8a 23 78 be
       0.20121975 -0.19894849 -0.311337 -0.24232307
000050 38 92 e6 be 49 f9 86 be c9 07 9f be 6a 5a 7b 3a
       -0.4503343 -0.26362064 -0.31060627 0.0009588363
000060 91 db ac 3d ad 07 a3 be d2 80 e3 be 10 87 11 bd
       0.084403165 -0.31841794 -0.4443422 -0.035529196
000070 c4 1c ee bd c3 15 84 be c4 18 08 3f 5d 73 12 be
       -0.1162658 -0.25797853 0.5316279 -0.1430182
000080 be 7f 21 3e 7c 12 5f 3e 87 ff 3e be af 81 0c bf
       0.15771386 0.21784395 -0.18652163 -0.5488538
000090 f4 ff 6e be f4 2f 1f bd a6 44 a5 3e 7c a6 6b 3e
       -0.23339826 -0.03886409 0.32278937 0.23012727
0000a0 eb c9 fe 3e 4c c1 b2 be fa b0 da be c6 53 de 3c
       0.49763426 -0.349131 -0.42713147 0.027139556
0000b0 7d 93 2d bf 41 95 18 be ca d0 ee bc 42 96 f7 3e
       -0.67803174 -0.14900686 -0.029152293 0.48356825
0000c0 8a ab 14 bf ca e1 29 3f 29 bf e4 bc 90 24 cf bd
       -0.5807425 0.6636015 -0.027923184 -0.101143956
0000d0 f3 98 a8 bd 00 76 65 3d 5d 2c 4d be 1b 31 84 3d
       -0.08232298 0.056020737 -0.20036454 0.064546786
0000e0 b6 0d 96 bd ce 2b a2 bc ce 4c c3 bd ff 69 fe bd
       -0.07326834 -0.019796278 -0.09536134 -0.12422561
0000f0 1d ad 20 3e 3c d4 66 bd 69 3f c4 bd 8c b3 1d be
       0.15691037 -0.056354746 -0.09582407 -0.15400523
000100 11 31 b9 bc d7 a1 9a 3d ca 1d 19 3c 19 69 10 be
       -0.022606404 0.075504 0.009345481 -0.14102592
000110 09 83 19 be 20 b0 dc 3c 73 12 93 3c ef 38 32 3e
       -0.14991392 0.026939452 0.017953133 0.17404531
000120 33 56 a6 3e f6 09 88 3e f2 a8 1b 3e 52 e5 68 3e
       0.3248764 0.265701 0.15201166 0.22743729
000130 53 bf d1 bd c7 25 f2 be 37 0b 7a bd 3b 87 e1 be
       -0.1024157 -0.47294447 -0.06104585 -0.44048485
000140 b3 81 a8 3c 55 cc 71 bf 78 b4 2c bd d0 55 96 bc
       0.020569658 -0.9445241 -0.042164296 -0.018351465
000150 0f af 7b be 8f 94 2f bf cf fb 03 be 57 bb 50 3e
       -0.24578498 -0.6858606 -0.12889026 0.20383964
000160 2b d2 fc bc de 38 1c 3d 99 5e 8f be 5e 6a 89 3e
       -0.030861935 0.03814017 -0.2800186 0.26838964
000170 30 d4 cd bc 4b 19 c2 bd b7 d9 74 3e 01 ed 04 bf
       -0.025125593 -0.094774805 0.23911177 -0.5192414
000180 5b 2a 53 bb 22 0b 27 3d 2b 81 c8 3c 5b cd 96 3e
       -0.003222129 0.0407821 0.024475655 0.2945355
000190 43 d3 0e bd 38 bc cf 3c 7a 75 59 3e e8 d0 50 3c
       -0.034869444 0.025358304 0.2123622 0.01274512
0001a0 5f 52 f4 bc 55 43 24 be 91 20 e3 bd 90 12 ab bb
       -0.029824434 -0.1604131 -0.11090196 -0.0052207187
0001b0 68 d8 69 3d 9e 97 96 3e 01 7a 98 bd 9e 3e fe 3c
       0.057091147 0.2941255 -0.074451454 0.031035718
0001c0 cf 74 f2 bc 2d 8b 34 be e8 b5 a9 3e f1 e7 46 be
       -0.029596714 -0.17631216 0.33146596 -0.19424416
0001d0 ab 2c 8b be 6e da c4 bb 44 b1 cf bd 01 20 7e 3e
       -0.27182516 -0.006007484 -0.101412326 0.24816896
0001e0 cd 5f 3e bd 6b 9a c0 bd ce d5 9e be bb bb 7d be
       -0.04647808 -0.09404453 -0.31022495 -0.24778645
0001f0 06 0c 1f bf ff 41 bb 3d 62 a1 ac be 68 48 c6 bc
       -0.6212772 0.09143447 -0.33716875 -0.024204448
000200 a7 9d 9d be 85 68 a9 be ed 07 19 3e d3 91 4d be
       -0.30784342 -0.33087555 0.1494443 -0.20075159
000210 f0 3d ec bd 25 d8 80 bb 37 10 e6 be 5c cc 32 3e
       -0.11535251 -0.0039320164 -0.44934246 0.1746077
000220 ab 25 ff 3d 96 8f dd bc e6 cf 0a 3e 42 9c 11 bf
       0.124583565 -0.027046006 0.1355587 -0.56879056
000230 a3 96 cf bc 16 31 aa 3b 7b 69 86 bd 7c 2c 9c bc
       -0.025340384 0.00519384 -0.065630876 -0.01906418
000240 90 27 1e be cf ee 62 3e c7 66 fa 3d d7 b9 1f 3e
       -0.1544478 0.22161411 0.122266345 0.15598236
000250 4c 64 95 3d 3e 80 49 bf fd 31 dd bf 95 21 8e bf
       0.07294521 -0.7871131 -1.728088 -1.1103998
000260 11 f4 e8 bf 6c 20 bd bf 65 cd fe bf 8a e8 c2 be
       -1.8199483 -1.4775519 -1.9906431 -0.38068038
000270 a5 1a bd 3e 42 7d 3f 3e 13 61 ff 3d ba e3 50 bf
       0.3693439 0.18700126 0.12469687 -0.81597483
000280 21 89 c1 be 76 57 8f 3e 84 c8 54 3e 84 c5 b5 3e
       -0.37799934 0.27996415 0.20779616 0.35502255
000290 a6 5a 0e bf 94 09 89 be 8f b1 bc 3e d8 ce 29 be
       -0.5560707 -0.2676512 0.36854216 -0.16582811
0002a0 83 ab 92 3d 97 a2 b7 be b0 58 8a 3d 01 5e 1f 3e
       0.071616195 -0.35866234 0.06755197 0.15563203
0002b0 54 82 d1 3d 90 b3 4a 3e 9f 31 07 be a5 78 56 bd
       0.10229936 0.1979506 -0.13202523 -0.05236115
0002c0 92 3a af bd 92 d0 52 3d c0 f2 a2 bd b9 3c 6e 3e
       -0.08556093 0.05146844 -0.07956457 0.23265351
0002d0 36 20 be 3d d7 bd dc bd b4 77 dc 3c 6c f7 f7 bc
       0.092834875 -0.107783966 0.026912548 -0.030269347
0002e0 6f 4e 1a 3e 5a 9e f4 bd d6 94 e9 bd 19 6f 09 bd
       0.15068983 -0.11944266 -0.11405341 -0.033553217
0002f0 e6 be 26 be 05 3a 57 3e 6c 90 ee bc 1f 9a 25 bd
       -0.1628376 0.21018226 -0.0291216 -0.040430184
000300 0f 3e 15 bd 70 05 57 be aa 46 9f 3e f7 52 7c be
       -0.036436137 -0.20998168 0.311086 -0.24641024
000310 4b 83 66 bd 0f 7f 08 3e e2 bd 2e bd 8c ae 9f 3e
       -0.056277554 0.13329719 -0.042661555 0.31187856
000320 b5 e9 1d be 0a fa 8c 3e 8f 70 b2 3d 67 03 d2 3e
       -0.15421183 0.27534515 0.08712875 0.4101822
000330 58 59 c4 bd 38 b0 e1 3e 02 94 56 3e b2 61 c1 be
       -0.095873535 0.44079757 0.20954898 -0.37769848
000340 38 51 38 3e 4c 58 eb 3d 73 5d 37 3e 27 7b 1a be
       0.17999732 0.11491451 0.17906742 -0.15086041
000350 19 a2 74 bf fb cc a1 be 24 30 b4 3e f9 dd 49 bd
       -0.9555984 -0.316017 0.35192978 -0.049283955
000360 bd b1 61 bf 67 55 6f 3e 83 92 07 3e 8b d0 c7 3d
       -0.8816183 0.23372422 0.13239484 0.09756573
000370 76 fa bc 3e 18 63 79 3e 7d f1 5c 3d 77 6e 7e 3e
       0.36909837 0.24354208 0.05394124 0.24846826
000380 5c e4 b8 bd 13 69 b3 3b 7e 43 79 3d 53 a8 61 3d
       -0.09027931 0.0054751723 0.06085538 0.055092167
000390 54 cd cf 3d 44 41 b3 3d 62 68 ec 3d 44 7c 5c bc
       0.10146585 0.08752683 0.11543347 -0.013457362
0003a0 c5 a4 2c bd d1 5c 19 be 72 a9 a0 bc 87 83 7e 3e
       -0.042149324 -0.14976813 -0.019612048 0.24854861
0003b0 14 b8 bb 3b a4 5f 17 bd ea f1 c4 bd 14 4b 04 bd
       0.005728731 -0.036956444 -0.09616454 -0.032298163
0003c0 35 7c 86 3e 79 19 06 be 3c 8e e2 bc 30 9b 21 bc
       0.26266637 -0.13095655 -0.027655713 -0.00986366
0003d0 3b 14 6c 3c 60 dd 20 be a2 a6 5d be b3 87 cd bc
       0.01440912 -0.15709448 -0.21645597 -0.02508912
0003e0 1b dc 1c be 9c 2e 3a bd
       -0.15318339 -0.045454606

conv1.bias f4 [10]
000000 8f 9d 9e bc 6e 62 c6 bc bb c0 54 bd ef 5f b3 bc
       -0.01936224 -0.024216857 -0.051941615 -0.02189633
000010 c5 a0 f0 bb 06 73 26 bc 78 ad 10 3e 16 68 bc be
       -0.007343384 -0.01015926 0.14128673 -0.3679816
000020 5e a9 27 bf 4e 2b 34 bd
       -0.6549281 -0.04398661

conv2.weight f4 [20, 10, 5, 5]
000000 79 47 06 bf 7d f1 17 bf be 54 20 bf d7 a6 e5 be
       -0.5245281 -0.59352857 -0.62629306 -0.4485385
000010 b8 03 11 3d 91 7a b2 3e 79 17 47 bf 06 b5 46 c0
       0.035403937 0.34859136 -0.7777019 -3.1047988
000020 00 00 37 bf 20 7f 80 3e d7 6a 57 3f ad fe e9 3d
       -0.71484375 0.2509699 0.841474 0.11425529
000030 48 10 bf bd f5 d2 49 3d 75 ca e2 bd ed 69 19 3f
       -0.09329277 0.04927345 -0.11073772 0.59927255
000040 49 2b c3 3d 95 1d 34 bd e8 0c c6 be 12 ec 00 be
       0.0952974 -0.043973524 -0.38681722 -0.12590054
000050 44 11 3e 3f ed 87 3b be 38 69 f6 be 87 a5 5d bf
       0.74245095 -0.1831357 -0.4812715 -0.865807
000060 5b 9c 38 3d 14 8e 99 be 02 04 92 be db 56 a1 3d
       0.045070987 -0.2999121 -0.28518683 0.078778945
000070 61 80 9e 3e 87 2e 05 3f 57 32 13 3b e7 f9 35 bd
       0.3095732 0.5202412 0.0022460425 -0.04442778
000080 fc a2 c4 3e 8a 7f a5 3e 3b 8f 01 be d0 a9 0a 3f
       0.38405597 0.32323867 -0.12652294 0.54165363
000090 2c 9f 12 3f e2 a3 db 3e aa 6d e7 bd 7a 75 ed bd
       0.57274127 0.4289847 -0.11300214 -0.115946725
0000a0 11 ee 4f 3e 92 03 09 3e 02 aa 45 bd d1 7f 50 bf
       0.20305659 0.13380268 -0.048257835 -0.8144503
0000b0 e5 7c c3 3e af d1 ce bd 79 ef 02 3f 74 8a b1 be
       0.38181224 -0.10098588 0.51146656 -0.34675944
0000c0 24 e7 e1 3c aa e8 22 3f 0f 15 88 3e a1 18 2c 3e
       0.027576037 0.6363627 0.26578566 0.1680627
0000d0 be 05 33 3e 5f ab c1 bd 68 8d a9 be 0c c2 af 3e
       0.17482659 -0.094565146 -0.33115697 0.34327734
0000e0 68 37 c5 3e f4 4d 42 3e 3b 87 44 be 2d 9e a6 3e
       0.38518834 0.1897505 -0.19192211 0.32542554
0000f0 05 e5 fb 3e 31 54 4e bb 14 c7 57 be 84 63 19 bf
       0.49198166 -0.0031483287 -0.21072036 -0.59917474
000100 02 ed 19 3f 00 2d ec 3e bb 78 40 3e 3d c3 b1 3d
       0.6012727 0.46128082 0.18796055 0.08679817
000110 07 99 c0 be 31 40 e1 3e 0c 7b c2 bb d1 7a ae be
       -0.3761675 0.43994287 -0.0059350785 -0.34078076
000120 2e c4 92 bf 04 79 a0 be 03 88 a2 3e 80 1b 32 bf
       -1.1466119 -0.31342328 0.31744394 -0.6957321
000130 2a 7c 91 be 44 cb a1 bd 4d 31 ac bb b1 94 4d 3e
       -0.28415042 -0.07900098 -0.0052549005 0.20076253
000140 ad d6 9c bd b6 b3 a9 bd 33 39 02 bf 4d 54 8e be
       -0.07658134 -0.0828623 -0.5086853 -0.2779869
000150 77 7d b5 be 39 c3 5c be e3 1c 3f be 1a af 1a be
       -0.35447285 -0.21558847 -0.18663363 -0.15105858
000160 5d 69 bb be 66 60 b7 bf 20 86 4a be 74 60 78 be
       -0.36603823 -1.4326293 -0.19777727 -0.24255544
000170 db 87 af 3d ec fe f7 bf 7f a9 44 c0 6b 23 06 3f
       0.08570834 -1.9374671 -3.0728452 0.52397794
000180 2a b1 07 3e 13 f6 ce 3e 9c 8c 1e bf 4e 49 aa bf
       0.13251176 0.40422115 -0.619333 -1.3303621
000190 ff 93 86 3e c5 7e c8 3e 47 67 59 be e7 89 89 bf
       0.26284787 0.39159217 -0.21230803 -1.074521
0001a0 09 9a 56 bf 59 f6 43 3e cc 42 34 3e e2 7f 36 bf
       -0.8382879 0.19136943 0.17603606 -0.71288884
0001b0 49 58 b8 bf e8 8e 0c bf a2 0e 44 3e 36 45 cb bd
       -1.4401942 -0.5490556 0.19146207 -0.0992531
0001c0 d4 b6 54 be d6 28 56 be 51 9d 87 3f fa 20 38 3d
       -0.20772868 -0.20914015 1.0594884 0.044953324
0001d0 e9 8e bc be 6c b7 bb bd 32 96 35 be 73 8e bd 3e
       -0.36827782 -0.09165844 -0.17733076 0.37022743
0001e0 fa c3 30 bf 13 16 c6 3d fc 32 4c 3e 00 6e c4 3e
       -0.69049037 0.09672179 0.19941324 0.38365173
0001f0 0b da 8f 3f 84 14 46 bd 72 b9 09 3f d1 58 bb 3e
       1.1238416 -0.04835941 0.5379859 0.365912
000200 9a ff 7f 3e d2 02 8d bd 12 42 d2 bd c4 de 0c 3e
       0.24999848 -0.068853036 -0.10266508 0.13756853
000210 63 34 2a bf cf d4 b9 be e0 d7 86 be 7b 9f e5 bc
       -0.66486186 -0.36295173 -0.26336575 -0.028030148
000220 29 91 d4 be 53 55 a2 bf 76 27 c8 be e5 37 8f bb
       -0.41516998 -1.2682289 -0.39092606 -0.004370677
000230 68 92 fc be 90 7b 0d c0 a1 cf 49 bd cd 6b 3c bd
       -0.4933045 -2.2106667 -0.049270276 -0.046001244
000240 46 5d 7f be 0a 53 c0 bf 56 86 90 be d7 83 36 3f
       -0.24937925 -1.5025342 -0.2822749 0.7129492
000250 27 c5 14 3f 7d 62 49 3f fc c7 6a 3e 5f b7 a5 3e
       0.5811333 0.78665906 0.2292785 0.32366464
000260 03 2a 5f be 91 ca 6e bf 68 5b 33 c0 20 b4 03 3e
       -0.2179337 -0.9327784 -2.802454 0.12861681
000270 03 45 0a 3f 68 e9 f8 3e 56 67 49 bf 5a a0 1c c0
       0.54011554 0.48615575 -0.78673303 -2.447287
000280 ea 98 f4 3e 66 c7 85 3e ae b6 d7 3d 61 3a b3 bf
       0.47772914 0.2612869 0.1053289 -1.4002191
000290 9d fb 99 bf b1 db d8 3e 8c 41 22 bf a4 ca 79 bf
       -1.2029911 0.4235511 -0.63381267 -0.9757483
0002a0 7d 0e 2a bf 72 98 58 bd 25 4c 9b bf a2 27 6c bf
       -0.6642836 -0.05287976 -1.2132612 -0.92247975
0002b0 88 53 6c bf c1 b3 a4 bf 96 6d be bf a7 9f a8 3e
       -0.9231496 -1.2867357 -1.4877193 0.32934305
0002c0 33 84 94 3e 24 5f 9c 3e 9e e2 89 3e 2e 63 12 3f
       0.2900711 0.30541337 0.26930708 0.57182586
0002d0 88 0d cd 3c 9d aa 37 bd 75 6a 29 be 97 59 18 be
       0.025030866 -0.044840444 -0.16544516 -0.14877926
0002e0 6c 5e 08 bf 92 68 23 bd ad 84 be be 2c 76 9c bd
       -0.53269076 -0.039894648 -0.372106 -0.07639727
0002f0 97 05 58 be 58 a2 1e 3e 34 7d 5a 3c ca 27 86 be
       -0.21095882 0.15491617 0.013335515 -0.26202232
000300 ed 08 dd be 4d 1e 9c be 63 f3 f8 bd 16 d0 81 3e
       -0.43170872 -0.30491868 -0.12155797 0.2535407
000310 4d 6d 36 3e 60 04 d4 3b a1 39 db 3e 58 bd 1b 3f
       0.17815132 0.006470248 0.42817405 0.6083579
000320 e6 66 8a 3e 6a 2b 88 be 48 99 42 3e 26 bf b0 3d
       0.2703163 -0.26595622 0.19003785 0.08630209
000330 08 5b 09 3d 18 cc 17 be 5f f9 29 be 6d 71 e6 bd
       0.03353408 -0.1482395 -0.16599034 -0.11252103
000340 a4 82 d8 bd 0b 7b 3f 3e 70 0d dc 3c d1 b3 4d be
       -0.10571793 0.18699281 0.026861876 -0.20088126
000350 df 80 b6 3d 29 44 32 be 59 8d 4f 3e 20 1d 95 3e
       0.08911299 -0.17408814 0.20268764 0.29123783
000360 2d ca 3f be ae 15 30 3e 99 39 4a be 37 da ec bd
       -0.18729468 0.1719577 -0.19748534 -0.11565059
000370 7e ab a3 3e 4a f8 ed 3e 00 af 82 3e c2 2d b4 3e
       0.31966776 0.46478492 0.2552414 0.3519116
000380 bf dd 89 3e 9b 42 d5 3e 74 e3 8c 3e 22 48 4d 3f
       0.2692699 0.41652378 0.27517283 0.8018819
000390 09 c1 07 3f d3 2a 6f 3e 1c 83 cf be fd 3d 24 bf
       0.53028923 0.2335618 -0.40529716 -0.64157087
0003a0 4e 47 88 bf 3c da 02 3e d0 a5 75 be ef 81 4c 3e
       -1.064676 0.12778562 -0.23989034 0.1997144
0003b0 27 98 de bd e4 f1 87 bd e4 71 9c bd 07 33 d1 be
       -0.108688645 -0.06637934 -0.076389104 -0.40859243
0003c0 09 05 f7 bc 36 24 20 bc a7 02 d8 3b 07 9a ad be
       -0.030153768 -0.009774258 0.006592113 -0.33906576
0003d0 2a 08 a2 be f1 e2 16 3f fe 4f f3 3e fd 0f a3 3e
       -0.31646854 0.58940035 0.47521967 0.31848136
0003e0 bd f3 82 3e 31 cc d0 be 78 1e 7e 3d 2c 89 11 3d
       0.25576583 -0.40780786 0.062040776 0.035531208
0003f0 b4 49 a1 bd b1 0a 46 3d 76 0f 1a be bd b7 b3 be
       -0.07875386 0.04835004 -0.1504496 -0.3510112

conv2.bias f4 [20]
000000 20 0c a0 be 79 6e 4e 3e 18 be ef bd ac 34 78 be
       -0.3125925 0.2015933 -0.117061794 -0.24238843
000010 33 2f 8b 3e f8 b9 9e ba 2b 42 53 3d 2c c0 c4 3b
       0.27184448 -0.0012109866 0.051576775 0.006004354
000020 9a 1c cd be d5 8c 10 be 54 36 1b be ef ea 38 be
       -0.40060884 -0.14116223 -0.15157443 -0.1805837
000030 35 96 05 bf e5 1d f7 be 89 2e 01 3e 39 05 ea be
       -0.5218232 -0.48264995 0.12615408 -0.4570711
000040 fb 27 0a be 81 0e 2f bd 48 9e 20 bf b3 18 a9 be
       -0.13491814 -0.04273844 -0.6274152 -0.33026657

conv3.weight f4 [20, 20, 5, 5]
000000 30 8d d5 bf 4a c6 9e be c6 c3 5b bf a5 4d 73 bf
       -1.6683712 -0.31010658 -0.858456 -0.9504035
000010 51 7b a3 bf 2a 4f a0 bf ad 58 7a be 99 68 16 bf
       -1.2772008 -1.2524159 -0.2444789 -0.58753353
000020 ca 30 3f bd ae 72 a0 be ac 1f 4a bf a8 f9 0e be
       -0.04667739 -0.31337494 -0.7895458 -0.13962424
000030 09 21 00 bc 4e 9e 79 3e 0c c1 e5 3e b3 11 cb be
       -0.007820376 0.24376795 0.44873846 -0.3966194
000040 70 4f 14 bd 05 5f a9 3e 8a e8 96 3e fc 35 b0 3e
       -0.03620857 0.33080307 0.29474288 0.34416187
000050 b1 e2 ba be 0a 41 92 3e 13 73 98 3e d0 38 7a 3e
       -0.36501077 0.28565246 0.29775295 0.24435735
000060 21 ec f6 3e f9 4a 0c bf 02 1d 53 bf 23 5c 13 3e
       0.48227027 -0.548019 -0.8246614 0.14390616
000070 b3 28 a7 3b b0 5f 46 3d 9a 0b 05 bf 22 a6 c7 be
       0.0051012873 0.0484311 -0.5197083 -0.38993937
000080 65 0b d4 3e 68 a3 5b 3e 93 a4 f5 bd b7 61 73 bf
       0.41414943 0.21449053 -0.11994281 -0.95070976
000090 99 f5 8a 3e fb b7 81 3e 13 f5 dc 3c 44 8d 78 bd
       0.271405 0.25335678 0.02697233 -0.060681596
0000a0 ff f8 9e bf be fc db 3e b7 3d bb 3d 34 4b ea bc
       -1.2419738 0.42966264 0.091426305 -0.028600313
0000b0 74 fe 37 bd 50 e9 ec bf 14 a4 76 3e f0 cb 03 be
       -0.0449204 -1.8508701 0.24086028 -0.12870765
0000c0 1f 8c 08 3d c9 ee b8 3e 10 72 88 3e ab 77 b6 3d
       0.033336755 0.3611968 0.26649523 0.089095436
0000d0 cd 59 ed 3e 62 99 ca 3e d1 fa af bd 4a 82 c2 bd
       0.46357575 0.39570147 -0.08592761 -0.09497507
0000e0 4d 20 1c 3e 37 9d 06 3e 87 ff 45 3e aa a0 0b 3f
       0.15246697 0.1314591 0.19335757 0.5454203
0000f0 69 5d 10 bd 33 24 34 3e f0 46 5a be 1d 48 41 3e
       -0.035245333 0.17591934 -0.21316123 0.18875165
000100 00 61 00 3f 57 4b bd be 51 84 96 be c7 d9 20 bc
       0.5014801 -0.36971542 -0.29397824 -0.009817547
000110 1c 5c 50 3e 7c 45 aa 3e 42 72 91 bf a8 85 09 bd
       0.20347637 0.33256137 -1.1362994 -0.03357473
000120 10 be 91 3e 6e 98 f5 3e 20 a7 02 3f 36 25 eb bd
       0.2846532 0.47967857 0.5103626 -0.11481707
000130 94 23 5c 3e e4 d1 11 3e 54 75 9b 3c 66 48 54 3e
       0.21497947 0.14240223 0.018976845 0.20730743
000140 3c c9 3e 3c 52 f2 92 3e 89 34 8d 3e 7b 35 16 be
       0.011644658 0.287005 0.27579144 -0.14668839
000150 b5 cf 95 be 6a ad 8a bd 9e 7c ad 3e 17 cd 96 3d
       -0.2926003 -0.06771357 0.33884138 0.073633365
000160 da e1 93 3c 89 f8 0f bf 94 30 86 3c 71 d5 f9 3e
       0.01805203 -0.5623861 0.016380586 0.48795655
000170 db 23 df 3e 04 f9 89 3e c5 a2 01 bf 00 89 e3 bc
       0.43582043 0.26947796 -0.5063899 -0.027775288
000180 df 3c 65 3e 53 48 34 3e e0 ed 63 3e 9a 70 1f bf
       0.22386502 0.17605714 0.22258711 -0.6228119
000190 47 cb 3b 3e d7 de 1c 3e 0f cc a5 3e 9c e5 49 3e
       0.18339263 0.15319382 0.32382247 0.19716495
0001a0 d8 52 b0 be 8d f7 44 be bd 9c 8b be 7e 90 92 bd
       -0.34438205 -0.19235058 -0.2726802 -0.07156466
0001b0 ec 87 c5 bd d3 27 1b bf 8d c2 0b 3e 4b 8e a1 bd
       -0.09645066 -0.6060764 0.13648434 -0.07888468
0001c0 87 68 53 bd 8d ae 82 be ec 53 d2 3d c7 97 03 bc
       -0.051613357 -0.25523797 0.10269913 -0.008031792
0001d0 5a a2 1f 3e 87 bb 81 3c 05 29 82 be 53 67 01 3f
       0.15589276 0.01583649 -0.2542192 0.50548285
0001e0 1e 43 22 bf 73 e3 13 bf 01 36 f5 be 25 80 0f be
       -0.6338366 -0.57768935 -0.47892764 -0.14013727
0001f0 8e 37 d9 3d 52 80 5a 3e 57 75 9a bd e5 d0 1b bf
       0.10606299 0.21338013 -0.07541912 -0.6086562
000200 61 23 84 be 87 31 68 3e 6e 90 70 be 34 7d ea be
       -0.25808242 0.22675143 -0.23492596 -0.45798647
000210 a1 ca c9 bf 47 8f 2b be e3 72 da 3e 51 3e 46 bc
       -1.5764962 -0.16753875 0.42665777 -0.012099818
000220 d1 c2 da be bd f0 96 bf 7d f9 29 bc 20 e0 be 3e
       -0.42726758 -1.1792217 -0.010374424 0.3728037
000230 f1 f8 b8 be a1 4b 89 bd 0e b9 8a 3e b1 f8 09 3e
       -0.36127427 -0.06703878 0.2709431 0.13473774
000240 1c ee 75 3b 49 36 d2 be ed cd f8 be ed 77 b6 be
       0.0037525957 -0.4105704 -0.4859461 -0.3563837
000250 e5 cc cb bf 3e a3 39 bf b9 ac 06 bd 24 99 03 be
       -1.5921904 -0.7251471 -0.032879565 -0.12851387
000260 3d be a1 be 5c 27 ec be 38 51 a2 bf fc 59 a7 be
       -0.31590453 -0.4612378 -1.2681036 -0.3268584
000270 ad 46 be be 29 95 5e be a5 62 fa be f1 77 b8 bf
       -0.37163296 -0.21736588 -0.48903385 -1.4411603
000280 1d 65 8d be 20 4e dd bc d0 31 b6 be b8 ac 43 bf
       -0.27616206 -0.027014792 -0.3558488 -0.7643542
000290 60 39 28 be 89 99 9a be 7c fb d5 bd b1 cd 82 be
       -0.16428137 -0.30195263 -0.104483575 -0.25547555
0002a0 f9 37 3a bd 66 1b 93 3d 1a c7 5e 3e cd ab 52 3e
       -0.045463536 0.0718296 0.21755639 0.2057335
0002b0 74 c3 ce 3d 33 a3 2a be 76 70 df bc a1 b6 0e 3f
       0.100958735 -0.16663818 -0.027275305 0.5574742
0002c0 13 ce f7 3e be 34 01 3f d4 77 47 3f 97 c7 04 3d
       0.4839941 0.50471103 0.7791722 0.032416906
0002d0 7a c9 bf 3e ee 3a 13 3f cb d7 b9 3e 62 a2 07 3e
       0.37458402 0.57511795 0.3629745 0.13245538
0002e0 b2 ad eb 3d fe fb 80 3d 50 9c 23 3e 48 9d a3 3d
       0.11507739 0.06298064 0.15977597 0.079889834
0002f0 dd 3a 31 bd c2 69 d4 bc cb a1 8c 3e 4f c3 2d be
       -0.043269027 -0.025929336 0.27467188 -0.16969036
000300 c0 58 43 be f2 8c 0b bd 3b f6 95 bd d7 4c a2 bf
       -0.19076824 -0.034069963 -0.07322355 -1.26797
000310 25 17 2a bf 9b 58 03 bf 7e ff b1 bd fb 54 19 3d
       -0.66441566 -0.51307076 -0.086913094 0.03743456
000320 e2 12 ee bf 98 bf 2e bf 1d 7c e0 be 6f fa 6c be
       -1.8599513 -0.682611 -0.4384469 -0.23142408
000330 29 72 d3 be 5a 75 d0 be 32 52 aa be d0 dd 85 bc
       -0.41298035 -0.40714532 -0.33265835 -0.01634112
000340 85 0d 07 3e 76 6d 2c be 67 29 b9 be 03 c8 99 bd
       0.13188751 -0.16838631 -0.361644 -0.07508852
000350 12 c6 31 be 23 1b fe bd aa a2 09 3e ef af 22 be
       -0.17360714 -0.1240752 0.13440958 -0.15887426
000360 6d e6 06 bf d2 16 1a bf 2e 7f 08 be 45 d2 39 3e
       -0.5269535 -0.6019107 -0.13329765 0.18146618
000370 43 f4 5e be 13 16 44 bf da 41 9d bf c3 f0 6c 3d
       -0.21772866 -0.7659618 -1.2285721 0.057846796
000380 6e 25 f9 3c 14 b9 b7 be 89 03 42 3d d1 34 51 3e
       0.030413356 -0.3588339 0.047366653 0.20430304
000390 85 17 f4 3e 9e 96 c9 3d dd 5b 0d 3d eb 93 a4 3e
       0.47674194 0.09843181 0.034511436 0.32144102
0003a0 d5 5c 51 3e 99 4e 61 3e 7d 95 a9 be 59 e7 21 bd
       0.20445569 0.22002639 -0.33121863 -0.03952727
0003b0 1f 87 ae be 77 83 75 bd 72 0d 68 3d 4c 89 00 bf
       -0.34087464 -0.059939828 0.056653447 -0.502095
0003c0 2a 40 54 bf b0 67 e5 be 57 b6 b9 3e a0 13 03 be
       -0.82910407 -0.4480567 0.36271927 -0.12800455
0003d0 bd 4d 53 bd 94 bc a7 bf bf 42 91 be 8f 0d 5e bd
       -0.05158781 -1.3104424 -0.28371236 -0.05421215
0003e0 84 00 cf be 20 16 30 be 00 ca 4c 3e 18 ff b3 3e
       -0.4043008 -0.1719594 0.19998932 0.3515556
0003f0 37 ba bd bd 95 55 77 3e 23 4f 6d be e1 2a fb be
       -0.09264033 0.2415374 -0.2317472 -0.49056152

conv3.bias f4 [20]
000000 84 94 7c bf 86 69 69 be 31 08 57 bf 31 59 81 bf
       -0.98664117 -0.2279416 -0.83996874 -1.0105344
000010 1c 07 19 bf 3b 4d 82 be 1a db 2e bd ad e9 95 bf
       -0.59776473 -0.25449547 -0.04268942 -1.1711937
000020 3f 18 61 be fa 5c b7 bd de f0 5e 3e 8b ed b5 be
       -0.21981905 -0.08953281 0.21771571 -0.35532793
000030 89 9c 4f bf c4 ca a3 be ae 14 76 bd c2 e0 16 3d
       -0.8109823 -0.31990635 -0.060078315 0.03683544
000040 e7 2d f4 be bc 0a 2e bd 9e 00 38 bf 0f ff 1b bf
       -0.4769127 -0.042490706 -0.7187594 -0.60936064

fc1.weight f4 [50, 320]
000000 49 19 e1 bd 1b b3 40 bd 45 f9 91 bc fb 3d 4f 3e
       -0.10991151 -0.04704581 -0.017819056 0.20238487
000010 37 57 6f 3e 7f 88 9f 3d 05 2e 4c be 56 53 0a 3c
       0.23373114 0.077897064 -0.1993943 0.00844272
000020 c2 10 93 bd d5 b5 6f bc 7a 94 f9 bd 4e da c8 bc
       -0.07180931 -0.0146307545 -0.12186523 -0.024518158
000030 a2 97 3d 3d 0a d3 89 bd 46 75 05 3e 01 a8 e4 3d
       0.046287186 -0.06729706 0.13033018 0.11164857
000040 6f eb c6 bd 9d dc 27 3d 52 9c c0 3d 5a c7 5a 3d
       -0.09712874 0.040981878 0.09404816 0.053412773
000050 8e a1 23 3d e5 f9 33 bc 15 2c 68 3d a6 f7 56 be
       0.039948992 -0.0109848725 0.056682665 -0.20992908
000060 93 0d 82 3d 92 93 14 be 39 a2 e0 bc 28 f3 3d 3c
       0.06350245 -0.14509419 -0.027421104 0.0115936175
000070 3a 28 31 3e 8d d7 ca bc 0d 85 d3 3d f8 46 c4 3c
       0.17300501 -0.024760986 0.10328112 0.023959622
000080 da 74 6d be 96 3b 80 3e 86 bb 36 3c 4c ff aa bd
       -0.23189107 0.2504546 0.0111531075 -0.08349475
000090 29 9e c1 bc f1 22 37 3b ef e7 a6 3a de 31 88 3d
       -0.023634987 0.002794441 0.0012733917 0.066501364
0000a0 ce 9a 6a be c6 27 f5 3d 5a 04 6d bd 8d 54 86 bd
       -0.22910616 0.11970477 -0.057865478 -0.065590955
0000b0 c0 8c 9c bd 82 e6 ee 3d 5b 82 1b bc e4 b9 9f bd
       -0.076440334 0.116650596 -0.009491528 -0.07799128
0000c0 71 60 0c 3e 24 84 c7 bd 49 42 b1 bd b8 11 2e bd
       0.13708664 -0.09742001 -0.08655221 -0.042497367
0000d0 3e 7e 0f be f0 dc 7a 3d 05 10 c5 bd 62 ff 0b 3e
       -0.14013001 0.06124586 -0.09622196 0.1367164
0000e0 e8 e7 8b 3d f1 2b fc bd c5 75 39 3d 83 42 c8 bb
       0.06831342 -0.12313069 0.04527833 -0.0061114444
0000f0 94 07 32 3e d0 25 fd bc 99 19 0d bc c6 a6 36 bc
       0.17385703 -0.03090182 -0.00861206 -0.01114816
000100 37 c7 67 be 36 8f 87 3d e7 f3 01 3c 6e 04 85 3e
       -0.22634588 0.06619112 0.007931686 0.25979942
000110 76 08 f8 bd 76 38 01 bc a8 e3 7b bd 77 3f 01 be
       -0.12110989 -0.0078869965 -0.061496407 -0.12621866
000120 bb f4 98 bd a5 25 8c 3d 17 50 e9 3d 27 cb 58 3d
       -0.07468554 0.068431176 0.11392229 0.052928116
000130 b1 80 1e be 60 c0 19 be d2 84 24 3c 28 19 14 3e
       -0.1547878 -0.15014791 0.010041432 0.14462721
000140 5e 98 7e be 94 f7 25 3e 8f 9a f8 bc d5 cf 68 3d
       -0.24862811 0.16207725 -0.030347137 0.05683883
000150 0d 65 5d 3d b4 a2 83 bd 25 bb 42 3d 57 f0 0e be
       0.054051448 -0.064275175 0.047541756 -0.1395887
000160 fa 2c 49 3d 5b 59 26 3d df 9f 4a 3e d9 ac 96 be
       0.04911516 0.04061256 0.19787548 -0.29428747
000170 2f 8c 96 bc 45 bc 4c be 17 41 7a bb ee ee 88 3e
       -0.018377392 -0.19993694 -0.003818577 0.2674479
000180 06 7c 15 bd 01 df 2c bd 04 ad 2f 3c c4 8f 1a bd
       -0.03649523 -0.04220486 0.0107224025 -0.03773476
000190 60 b7 10 bd 0e 20 49 3b df bb c2 bc 8e 41 e4 bc
       -0.03533113 0.0030689272 -0.023771225 -0.02786329
0001a0 ba 76 42 bc af 60 7d bd 59 9c 37 bd bd 86 4a 3d
       -0.011869127 -0.061859783 -0.04482684 0.049444903
0001b0 44 31 9c 3c ca cb 73 3c 15 e9 77 3c d1 c3 c6 3c
       0.01906646 0.01488013 0.015131255 0.024263294
0001c0 bf 1a 29 be 18 4f 01 bd df 36 cd 3d bc 02 e0 bc
       -0.16514109 -0.03156957 0.100202315 -0.027345054
0001d0 74 d3 0f 3e 46 be da bc 11 29 b4 bc 9e d7 8d 3e
       0.14045507 -0.026702058 -0.021992238 0.27703565
0001e0 7f 88 0c 3d d6 9d e7 3b 5c 0b 20 3d ae 2d 0c 3d
       0.03430986 0.007068376 0.039073333 0.03422325
0001f0 50 11 c5 bd 78 9f bc bd e3 c6 19 3e d2 f7 8e 3d
       -0.09622443 -0.09210104 0.15017276 0.06980862
000200 17 7e ba bc 28 c1 81 3d cf 1f 83 be e6 fe 98 3c
       -0.022765202 0.0633567 -0.25610206 0.018676233
000210 aa 40 16 3e a0 4e 16 3e 34 2e 7c bd b0 9e 31 be
       0.14673105 0.1467843 -0.0615675 -0.1734569
000220 8d 8e 37 be 34 4c 78 bd 3d aa 13 3e ec 16 6a 3d
       -0.17925473 -0.060619548 0.1442041 0.057150766
000230 1d 9f ec 3d b9 57 b0 bd 60 da c8 bd 6b e7 92 be
       0.11553786 -0.08610482 -0.09807277 -0.28692183
000240 8c 37 0b bd 3d 5d cb bc c6 77 e5 bc 1f f8 16 3d
       -0.03398852 -0.024824733 -0.028011214 0.03685772
000250 f0 62 17 3c 4f 96 2a 3d 97 7a ca bb b4 db 02 bd
       0.009239897 0.04164725 -0.0061791646 -0.031947806
000260 e7 ad 69 bc a6 89 60 bd a5 be 0b 3d 0e 7a 8f 3d
       -0.014262653 -0.05481877 0.03411736 0.07005702
000270 42 03 f4 bc 8a 59 c7 3c b3 db 82 bd 00 6b 15 ba
       -0.02978671 0.024334688 -0.063895606 -0.0005699843
000280 a5 59 f1 bc 84 a6 e3 bd 4f b3 59 be 17 71 58 be
       -0.029461691 -0.11115745 -0.21259807 -0.2113689
000290 e4 21 28 be 97 58 6a 3e fa fc 23 3d 28 fe 32 3c
       -0.16419178 0.22885357 0.04003618 0.010924853
0002a0 3f c5 14 3d 86 33 8c 3d ae c2 95 3e cb 5e fc bd
       0.03632092 0.06845765 0.2925009 -0.12322768
0002b0 b3 9b 1e 3d 94 60 a0 bc 18 0b c1 bd b7 6b f3 bd
       0.038722705 -0.019577302 -0.09425944 -0.11885779
0002c0 2d e7 b6 3e c0 8d 30 3d 84 c9 f5 bc d6 f2 e7 3d
       0.35723248 0.043103933 -0.030003317 0.11325614
0002d0 99 75 71 be b7 a1 28 3d a7 ae 77 bd bb 2a 36 b9
       -0.23580016 0.04116985 -0.060469296 -0.00017372791
0002e0 18 85 bd 3d e6 c4 f3 3d fa fc fb bd 1a 40 0b be
       0.09253901 0.1190279 -0.12304111 -0.13598672
0002f0 26 11 66 bd 2f a7 50 bc 7e 03 93 3d 57 98 52 3d
       -0.056168698 -0.012735172 0.071784005 0.051414814
000300 53 c8 e6 3d 61 93 25 be 73 fd 4a 3e aa db 94 be
       0.112686776 -0.16169502 0.19823246 -0.2907384
000310 4c 82 3f 3c 5c c4 f2 bb 08 3d 39 bd 4f fb 16 3c
       0.01168878 -0.007408662 -0.04522422 0.00921519
000320 9a b8 52 be 77 34 a2 bd ef 86 cd 3c e4 3a d9 bc
       -0.20578232 -0.07920163 0.025088755 -0.026517339
000330 2a ae 80 3d 0a 77 34 3c 95 8b 02 be 61 73 3a 3e
       0.06283219 0.011014709 -0.12748559 0.18208076
000340 37 19 da 3d 1d 1b 0f 3d 33 f6 8a bc 9c c1 7a 3d
       0.106493406 0.034937967 -0.0169631 0.061219797
000350 d9 50 d5 bb ea 7c 4e 3e 6f cc fb bc 1e f3 d0 3d
       -0.006509882 0.20164838 -0.03073713 0.10202621
000360 c9 30 1c be e8 05 a3 bd e2 31 7b 3d 15 c2 a7 3a
       -0.15252985 -0.07960111 0.06132687 0.001279893
000370 07 c2 4d bd fa 7d 4a 3e 17 14 fe bb 6f 18 01 be
       -0.050233867 0.19774619 -0.0077538597 -0.12606977
000380 a0 87 98 3e ae f7 39 be 8d 75 3b be aa f1 5e bc
       0.29790974 -0.18160889 -0.18306561 -0.013607422
000390 bd 56 80 be a9 24 00 3e 91 1a 8d bb 54 26 70 3d
       -0.25066176 0.12513985 -0.0043061455 0.058630303
0003a0 2a 1f a4 bc e0 4f ac bd b8 8a a5 bb b1 0e 96 bd
       -0.020034391 -0.084136724 -0.005051937 -0.07327021
0003b0 bc 21 7a 3d 32 71 91 3d fe c9 e7 3d aa 34 a1 bd
       0.061067328 0.071016684 0.11317824 -0.07871373
0003c0 bc fa 1d 3d f4 05 0e 3e 93 7e 98 bc 46 40 17 bb
       0.038569197 0.13869458 -0.018615043 -0.0023079081
0003d0 3e ad 79 3d 92 1d fd bd ed 28 ba 3d 8f 63 52 bd
       0.060956232 -0.12359156 0.09089837 -0.051364478
0003e0 29 51 a6 3b 94 0a ed 3d ad d4 98 bb bf 19 32 be
       0.005075593 0.11574283 -0.004664025 -0.17392634
0003f0 d4 a9 38 3c 98 d8 8c be 91 da 37 3e 49 38 44 3e
       0.011270959 -0.27508998 0.1795447 0.19162096

fc1.bias f4 [50]
000000 df 21 32 3d 89 22 48 3f 7b 91 c1 3d 28 7c f2 bd
       0.043489333 0.78177696 0.09451576 -0.11840087
000010 3b 23 16 bf ab 55 08 bd 0a e4 74 3f 73 91 13 bf
       -0.5864751 -0.033284824 0.9566046 -0.5764381
000020 91 c2 53 3c ed f0 16 3d 3c 40 09 bf 98 51 94 bc
       0.012924806 0.03685086 -0.5361364 -0.018105313
000030 6f f1 03 be 0d 62 9a 3d f3 76 b8 bd 5f 4c 82 3d
       -0.12885068 0.07538233 -0.09007063 0.06362223
000040 7d 93 38 be 3c f6 e8 be 7a dc 83 3d 94 18 94 bd
       -0.18025012 -0.45500362 0.06438537 -0.072312504
000050 d7 db ad 3b b1 ae a3 bd 3a a5 dc bb ea b1 ed be
       0.005305748 -0.07992304 -0.0067335637 -0.464248
000060 51 a8 7e 3d 72 0b a8 3c 45 5e 50 3d db 6b 88 bc
       0.062172238 0.02051327 0.050871152 -0.016652992
000070 a0 31 90 bd 10 72 a1 bd 85 9c 08 be 80 01 d3 be
       -0.07040715 -0.07883084 -0.13340957 -0.41212082
000080 ce 83 97 be b4 2e 6f bd ba b0 4b bd 08 9f 01 3f
       -0.29592746 -0.05839415 -0.049729086 0.5063329
000090 e0 3c 5a 3f 8c 89 4d 3c 4e e1 06 3f 4e 96 0e 3e
       0.8524914 0.012545001 0.5268754 0.13924524
0000a0 cd 51 e9 bd df 48 9c 3f 84 37 9d 3f de 5e 91 bb
       -0.113925554 1.2209738 1.2282567 -0.004436358
0000b0 4c 99 bc 3d 20 aa 0b 3e ba b1 11 be 09 dc 58 bf
       0.092089266 0.13639116 -0.14227954 -0.84710747
0000c0 eb 4a 44 bd b1 71 21 3d
       -0.04792301 0.039415065

fc2.weight f4 [10, 50]
000000 9c dc 45 3b 2b b7 f0 3c cd a8 d7 3c 4a f1 0a 3d
       0.0030191308 0.029384216 0.026325608 0.033921517
000010 60 71 33 3d 39 60 c0 bd 20 31 0e bb 27 b9 86 3c
       0.043809295 -0.09393353 -0.0021696761 0.01644571
000020 14 9c 4e 39 1a 9a d0 3c 64 59 5a bd ba 22 a8 bb
       0.00019703835 0.025464106 -0.053307906 -0.005131093
000030 ef 1e 1b 3c 28 ce 1d 3d 40 e5 5a ba d3 6f 3c bd
       0.009467824 0.038526684 -0.0008350201 -0.04600508
000040 8b 1d 47 3e 98 0f d9 3c 2f 9c 0f 3d 42 a2 41 3c
       0.19444863 0.026496693 0.035061058 0.01181847
000050 da 0f eb 3b 81 03 f1 bc ba a4 7e bd 11 f8 ca bd
       0.0071735205 -0.029420616 -0.062168814 -0.09910596
000060 85 00 9e 3c c6 86 0a bd 3e ef 02 bd 8b 64 ce bd
       0.019287357 -0.033819936 -0.03196644 -0.10077771
000070 4d 49 b5 3c ce 9c 2d 3d 4c d2 6c 3b 98 3a fb bb
       0.02212968 0.04238587 0.003613609 -0.007666897
000080 c5 12 2c bd 67 6a 2b bd 3d 59 14 3c 9b 38 7f 3e
       -0.042010088 -0.04184952 0.009054479 0.24923937
000090 ee f4 9b 3e 03 f4 3c bc 2a 44 c7 bd 87 e9 9d 3b
       0.30460304 -0.011532786 -0.09729798 0.0048190984
0000a0 fb e1 22 3d 9d 77 72 b9 e6 6e b8 3e 53 02 68 bd
       0.039766293 -0.00023123478 0.3602211 -0.05664284
0000b0 a8 74 ed 3b 1f 1a c3 3c 03 a2 1b 3d d9 0a 2a 3d
       0.0072465725 0.023816166 0.037996303 0.04151425
0000c0 86 f3 87 bc 6b 39 63 bc 3d db 94 3c 28 fc c7 3c
       -0.016595613 -0.01386867 0.018170947 0.02441223
0000d0 b3 44 54 3c 77 58 5e 3d 46 1b cd 3a 02 4b e9 bc
       0.012955832 0.054283585 0.0015648387 -0.02847815
0000e0 65 16 42 bd 7d cf 8d 3c 38 2e af bb e2 b2 eb 3b
       -0.04738464 0.017310852 -0.005346086 0.0071929554
0000f0 dc 96 60 3d e5 d2 90 bb e2 7e d3 3a 24 52 45 bc
       0.05483137 -0.004419672 0.0016135836 -0.01204351
000100 53 6a 52 bc c7 c7 2a bd fd cc 1f be d0 55 51 3b
       -0.0128427325 -0.04169443 -0.1560554 0.0031942017
000110 0b 2b 4a 3c e5 d8 9e bc 1e 46 5c bc 75 68 8f bc
       0.012339364 -0.019390533 -0.013444452 -0.017505864
000120 c5 1f 57 bd 75 95 3b bf b0 29 97 3c d2 24 f7 bc
       -0.052520532 -0.7327493 0.018452495 -0.030168924
000130 8c c1 b9 3c 44 f2 74 bd 83 d3 dc 3c f0 ff 44 b8
       0.022675298 -0.059801355 0.026956325 -4.6968402e-05
000140 a6 74 b9 bb 6f 52 a4 3e 97 4b 95 bd cc 61 04 bd
       -0.0056596575 0.32094142 -0.07289808 -0.03231983
000150 55 a3 bc 3c 4e b1 ee 3d 49 0a c4 bd 5e 63 13 3b
       0.023027102 0.11654912 -0.09572274 0.0022489647
000160 94 00 05 be e8 38 69 3b 0c 05 56 3d 8a 5f 8a bc
       -0.12988502 0.0035586897 0.052250907 -0.01689126
000170 83 71 09 be e1 f7 3b bd c6 7d 5d 3c 7e 47 3b 3c
       -0.13422208 -0.045890693 0.013518756 0.011430619
000180 81 2a a2 bd a9 2a 4a bd 56 7b 12 3d 0d c5 55 bc
       -0.07918263 -0.04935709 0.035762154 -0.013047469
000190 73 63 1a bc c1 f2 88 bd 57 f7 7d 3d 23 9e 59 3d
       -0.009423125 -0.06686927 0.06200346 0.053129327
0001a0 b2 4c dd 3d 67 40 a9 bc 57 97 9b bd a7 8c 33 3d
       0.10805644 -0.020660592 -0.07597225 0.04383531
0001b0 6a 5c 59 3d bd 92 1a bd 6d 55 6b 3e 33 8f 57 bb
       0.05306665 -0.037737597 0.22981806 -0.003289175
0001c0 c8 b8 2a 3c 92 a9 17 3d 10 27 36 ba 78 c9 23 bd
       0.010420032 0.03702695 -0.000694857 -0.039987057
0001d0 ee fb ab bd 08 55 7a 3d 38 19 be 3c f7 57 ce bc
       -0.08397661 0.06111625 0.023205385 -0.02518843
0001e0 dd 7d b1 bc f7 83 7a bb f2 21 83 bd cb 02 f2 3a
       -0.021666462 -0.003822563 -0.06402959 0.0018463967
0001f0 ad 09 db 3c c4 62 fd bc d6 9e af 3b fa 5d 5a bd
       0.026738012 -0.030930884 0.005359511 -0.05331228
000200 64 5e 25 bc d9 17 84 3c 34 89 23 bc 32 80 e5 bd
       -0.010093305 0.016124653 -0.009981442 -0.11206092
000210 48 81 a3 3c 1d 8e 11 bc 02 a5 1f 3c cc 25 eb bd
       0.019959107 -0.00888398 0.009743931 -0.114818186
000220 10 eb 58 3d fa a0 f6 bb 82 25 ca bd 8d 81 07 3d
       0.052958548 -0.007526514 -0.09870435 0.033082534
000230 e6 df 07 3d 60 46 1e 3e cd 29 01 be 2f 69 1f bd
       0.03317251 0.15456533 -0.12613602 -0.03891867
000240 b1 8d b3 3b 85 7f 81 3c b2 5a 0d be ed 5b 9d bd
       0.0054795374 0.015807876 -0.13804129 -0.07683549
000250 f3 ec db 3c ad 29 1f bd 72 f7 b3 3c b4 67 46 3d
       0.026846385 -0.038858104 0.021968577 0.048438743
000260 e5 33 10 3d 77 fe ae 3c a2 d3 be bc 83 14 1f bd
       0.03520574 0.021361573 -0.023294274 -0.03883792
000270 1f be 82 bd a1 80 a4 3c ce 4d 95 38 c2 fc ce bc
       -0.06383919 0.020080866 7.119366e-05 -0.025267009
000280 0d 80 c6 be 9f 6f 8e ba b8 9e fd 39 bf ba a9 3c
       -0.3876957 -0.0010867006 0.00048374175 0.02071893
000290 8e 17 e4 bc 2f 31 1e bd 66 7c ff bd d0 55 09 3d
       -0.027843263 -0.038621124 -0.12474899 0.033529103
0002a0 62 31 b2 3c 04 b6 15 bd 98 ee d0 bb 53 5c ab bc
       0.021752063 -0.036550537 -0.006376099 -0.020918047
0002b0 a5 8f 61 bd bf 9a c7 3d ab 72 ce 3c ae 0f 71 bd
       -0.05506863 0.09746312 0.025201162 -0.058852844
0002c0 9b 07 20 bd bf da 25 bd bc bd f4 3c 89 a9 e5 3c
       -0.039069753 -0.040491816 0.029875629 0.028034942
0002d0 76 2a 4e bc 1f 4a 8e bd 45 52 9c 3c 08 80 23 bd
       -0.012583366 -0.06947731 0.019082198 -0.039917022
0002e0 27 12 c6 3c 15 b4 bb bd 90 d6 d8 bd dc fe c9 bb
       0.024178578 -0.09165207 -0.105877995 -0.006164415
0002f0 37 7c c9 bd e7 09 bf 3c c9 4e 25 3d 84 06 4b 3e
       -0.09838145 0.023320151 0.04035834 0.19826704
000300 7e 47 0c be 56 48 24 bd 36 49 69 bc 61 02 02 3d
       -0.13699147 -0.040108047 -0.014238646 0.03174055
000310 77 32 ef bd ad bc 58 be 90 40 75 bb d8 d7 c6 bb
       -0.11679547 -0.21165724 -0.0037422515 -0.006068211
000320 58 7d 60 3c 20 46 39 bd a9 64 2c bc 86 1f 3a 3d
       0.013701759 -0.045232892 -0.010522046 0.04544022
000330 64 11 fd 3d e4 d9 ad bc 32 0a e9 bd c1 7a b3 3c
       0.123568326 -0.021222062 -0.11378898 0.02190912
000340 46 d2 83 3c 3d ae 2c bd 93 fc 2f 3e dd 12 76 3b
       0.016091477 -0.042158354 0.17186193 0.0037547864
000350 54 36 1d 3a 56 29 25 3d 1b 67 b7 bc 15 f8 55 bd
       0.000599717 0.040322624 -0.022388032 -0.052238543
000360 69 37 c0 bd 5e 4f f7 3c ab 05 06 3d f6 11 0b bd
       -0.09385569 0.030189212 0.03272025 -0.033952676
000370 0f fe 4d 3a 45 56 e9 bc 52 1b 5f bd 07 ef 39 3e
       0.0007857987 -0.02848352 -0.054469414 0.18157588
000380 b7 46 40 3b e8 b4 60 bb a2 8f 1a 3c 47 eb d8 bc
       0.0029339024 -0.0034287516 0.009433659 -0.026479376
000390 59 60 11 3c d6 45 8a 3c ea 4d a4 bc 89 7d c2 3e
       0.008873069 0.016879003 -0.020056684 0.379864
0003a0 fb ba d1 3c 21 84 2a bd 0f a9 18 3d cf b3 8d 3d
       0.025601855 -0.041629914 0.0372706 0.069190614
0003b0 ed 42 50 be 48 d4 b8 bb b1 0a a6 bd 70 78 3d bc
       -0.2033803 -0.0056405403 -0.08107508 -0.011564359
0003c0 f1 dd 28 3c 02 23 21 be 97 cc 04 be 21 e2 1b bd
       0.010306821 -0.1573601 -0.1296867 -0.03805745
0003d0 e3 e6 63 bb 63 0a 0f 3c 89 82 07 bd 2d 09 26 3e
       -0.003477507 0.008730504 -0.033083472 0.16214438
0003e0 19 21 c4 3c 6f d0 99 3b 13 ea 38 3c 1a 12 76 be
       0.023941563 0.0046940367 0.011286276 -0.24030343
0003f0 51 e0 2d bb a3 c5 3b 3d 6d 79 4b be 5a b4 62 bd
       -0.0026531408 0.045842778 -0.19870539 -0.055347778

fc2.bias f4 [10]
000000 9e 4a cc 3e 5b 4c 20 bd b4 e8 2c 3f 8a 3e b7 bd
       0.39900678 -0.03913532 0.67542577 -0.08947475
000010 67 ea fb be ad 80 28 bd 82 10 56 be 01 93 76 be
       -0.49202272 -0.04113834 -0.20904735 -0.24079515
000020 83 d6 7e 3e 6a f9 7c be
       0.24886517 -0.24704519
